snapshots/1113_nc400_type_epoch_400.pth (torch, 37600 bytes, 4 tensors)

hidden.weight f4 [400, 3]
000000 87 f0 74 bd 25 b9 3c 3e 92 42 6b 3e 8e f0 d8 3e
       -0.059799697 0.18430002 0.22974613 0.4237103
000010 af 14 85 be 4a c7 8d be a2 2f 42 be 1c fe 9a be
       -0.25992343 -0.27691108 -0.18963483 -0.30271995
000020 1b b2 4f 3f dd a3 48 3b d0 e4 92 be 7a b8 ed 3e
       0.8113114 0.0030615248 -0.28690195 0.46429807
000030 e8 5f 7a 3e 2b 11 80 3e bf 89 2d bd 99 56 39 bf
       0.24450648 0.25013098 -0.042367693 -0.7239776
000040 89 f9 34 bf 1d 43 4f be 42 b4 f4 3d d0 d1 81 3d
       -0.7069326 -0.20240445 0.11948444 0.06338847
000050 44 36 67 bd ff 18 a5 3d 2e 69 99 3e 96 cd 54 3d
       -0.056448236 0.08061408 0.29963058 0.051953875
000060 a7 20 15 be 54 86 4c 3e 12 8a 80 3e 16 b0 b9 bf
       -0.14563237 0.19973117 0.2510534 -1.4506862
000070 9a 79 3f bf 02 00 44 be c4 c6 da 3e a4 fc 00 3f
       -0.74794924 -0.19140628 0.4272977 0.503855
000080 f0 7d b3 3e 0c 13 b9 3e af 4a fa bf fb 3c d6 3c
       0.3505702 0.36147344 -1.9554042 0.026152125
000090 25 77 b3 be ff 90 99 be 36 61 98 bd cd 8e 4b bf
       -0.35051838 -0.29993436 -0.074404165 -0.7951477
0000a0 92 4f da 3f 2a 70 0b 40 cf 59 5b bf 14 86 1b 40
       1.7055533 2.178721 -0.8568391 2.4300585
0000b0 73 42 cd 3f 29 69 bc 3e 2f b5 95 bf 61 4c 8a 3d
       1.6035904 0.3679898 -1.1695918 0.06752849
0000c0 d8 a2 08 bd 0e aa 37 3e 88 c9 40 3e 4d 11 7f bf
       -0.033358425 0.17935964 0.18826878 -0.99635774
0000d0 c2 31 7b bf 77 0b f1 bd 80 33 8e 3e 09 cf 72 bd
       -0.981228 -0.11769765 0.27773666 -0.059279475
0000e0 a9 37 c9 3e 69 6c ac 3e 8b 95 37 be 35 f1 11 be
       0.39300278 0.3367646 -0.1792814 -0.1425217
0000f0 ea 5b ad bf 5f c9 17 3f 2c 9e 16 bf d8 aa 70 3e
       -1.3543675 0.5929164 -0.588351 0.23502672
000100 b7 ee a8 bf 88 dc 07 3f 71 cf df 3e 4a bc a0 be
       -1.319785 0.5307088 0.43712953 -0.31393653
000110 84 c8 8b be 52 71 d0 3b 93 6f e1 bc 40 7f cd 3d
       -0.2730142 0.006361165 -0.027519023 0.10034037
000120 bb 29 53 3f a2 2f 63 3e 10 b3 12 bf 44 db 83 3e
       0.8248555 0.22186139 -0.5730448 0.25753224
000130 5c 68 3a be e7 06 08 be 71 8d 5f bd d1 e1 89 3e
       -0.18203872 -0.13283883 -0.05457825 0.26930097
000140 33 0e 4a 3e c5 98 f1 3c 27 ee 34 3e 92 71 17 bd
       0.19731979 0.029491792 0.17668973 -0.036973543
000150 43 6a 1e bd d8 23 97 3e 64 58 9c 3e 96 cb fc 3e
       -0.038675558 0.29519534 0.30536187 0.49374074
000160 3f 60 15 bf 90 9b 0f 3f 00 87 36 be 42 d7 ee be
       -0.58349985 0.56096745 -0.17824936 -0.46648604
000170 7f b2 d3 3e 05 46 5f be c4 eb 8a bf ee 53 1d bf
       0.4134712 -0.21804054 -1.08532 -0.6145619
000180 f1 88 5b 3e 97 35 14 3e 87 67 b5 bd 76 51 25 bf
       0.21438958 0.14473568 -0.08857637 -0.64577425
000190 85 56 49 bf 35 c4 b1 bf 12 36 91 bc ef 1d 48 3e
       -0.78647643 -1.3888003 -0.017725978 0.19542669
0001a0 3f b2 8c 3e 27 1d 4e 3e d9 33 0f be c7 82 d5 37
       0.2747974 0.20128308 -0.13984622 2.5452477e-05
0001b0 f6 d3 92 bc a6 e4 ac 3b 70 7a 3a 3e 21 ce 11 3f
       -0.017923336 0.0052762805 0.18210769 0.5695515
0001c0 34 f1 25 3f b1 38 26 be eb 1a 5c bf c4 9c 38 bc
       0.6482117 -0.16232564 -0.85978574 -0.011267845
0001d0 47 c3 16 bf 28 60 0b 3e c4 76 19 3e 11 ea f4 3c
       -0.5889172 0.136109 0.14986712 0.029896768
0001e0 f6 a4 54 3f b2 cd 2a be 3a 44 c8 bf c5 5f 37 3e
       0.8306421 -0.16680029 -1.5645821 0.17907627
0001f0 82 ae ef bd 4d a9 6d bb ca 91 d0 be dd 67 0b 40
       -0.117032066 -0.0036264241 -0.40736228 2.1782143
000200 44 51 e0 3d 43 c4 d2 3e ec fb c6 be e8 dc 88 be
       0.10953 0.4116536 -0.38864076 -0.26731038
000210 a0 bf 13 3e 02 98 da bd 30 56 e8 3c 42 88 eb 3d
       0.14428568 -0.106735244 0.02836141 0.115005985
000220 6a 47 f0 bd 28 eb 5f 3d 42 5e e7 bd ba 26 54 3e
       -0.11732371 0.05466762 -0.11297275 0.20717898
000230 6b 4a b2 3e 1b 14 57 bd f4 62 a7 3e c0 6f 8d 3e
       0.348224 -0.05250941 0.32692683 0.2762432
000240 40 96 19 3f a5 0d 25 bf 56 15 50 3f b8 67 45 bd
       0.5999489 -0.64473945 0.81282556 -0.048194617
000250 bf c8 52 3e 59 50 4c 3f 01 c4 28 3e 71 1a 31 3f
       0.20584391 0.798101 0.1648102 0.6918097
000260 aa 29 6a bf b0 f0 2d bf de f6 2e 40 6c 58 a0 3f
       -0.91469824 -0.67945385 2.7338176 1.2526984
000270 01 8f 3e 3e 4e 28 70 3c 46 24 76 bd 4d fc 3d bf
       0.18609239 0.014658047 -0.060093187 -0.74213105
000280 d1 94 a3 3e af 8b 41 bf 4f ae 26 3d fb ae 06 3e
       0.31949475 -0.75603765 0.040693577 0.13152687
000290 cf 09 07 3e ce 5f 91 3d 81 57 f2 3e 21 7f a0 be
       0.13187335 0.070983514 0.47332385 -0.31346992
0002a0 64 ea 37 bf 56 37 05 be 90 2a f4 3e bc cc 2d bf
       -0.71842027 -0.1300939 0.47688723 -0.67890525
0002b0 51 bc fd 3f 04 d7 00 3f c4 06 b0 3e 7c e1 17 3f
       1.9823095 0.5032809 0.34380162 0.59328437
0002c0 e4 45 95 3e 81 cf a1 3c f7 a5 a1 be 2f 00 84 3e
       0.29154885 0.019752266 -0.31571934 0.2578139
0002d0 36 1c f0 3d 2a 4b 68 be 44 76 4e bd 80 2d c3 bd
       0.11724131 -0.22684923 -0.050405756 -0.09530163
0002e0 04 47 83 3e 7d 5c 3a 3e d7 25 e6 be 85 72 ab 3e
       0.25640118 0.18199344 -0.44950745 0.3348581
0002f0 c7 45 51 3f 42 ed d2 bd 44 29 04 3e eb eb 9d 3e
       0.81747097 -0.102991596 0.12906367 0.30844054
000300 0b ec 8e bf 6f 19 31 be 8b 8e 0a 40 2c 3f 3e be
       -1.1165785 -0.17294858 2.1649501 -0.18578786
000310 04 2b 7f bf d5 82 0d 3f 5c 54 ca bc 9b 8a 66 bc
       -0.9967501 0.5527776 -0.024698429 -0.014071132
000320 55 80 49 3e e7 75 b1 bf 43 fe 53 3f 8c 9f 05 bf
       0.19677861 -1.3864106 0.8280985 -0.52196574
000330 23 87 90 be c7 cc 8b 3e 35 f6 d3 3e 06 38 6a bd
       -0.282281 0.2730467 0.4139878 -0.057182334
000340 4f a6 93 3e c6 1a 97 3d f3 46 a4 3d 3f 0c 6d bd
       0.2883782 0.073781535 0.08021345 -0.057873007
000350 58 32 bc bd 65 82 5d 3f 14 a4 b6 3e 59 76 54 bf
       -0.0918929 0.8652709 0.35672057 -0.82993084
000360 a8 ae 4b 3e 6e 65 4e be ed 55 42 bd bc 3a d7 bc
       0.19890845 -0.2015588 -0.047445226 -0.026273124
000370 66 da 6b 3d 07 ce d7 3d 84 03 be 3d ef f2 a4 3f
       0.057581328 0.105373435 0.09278014 1.2886637
000380 80 2c b3 bf ac 31 28 bd 52 32 09 3f 94 ad 0c 3f
       -1.3997955 -0.041062996 0.5359241 0.5495236
000390 84 0b d7 3d 16 58 cc 3e d9 67 e3 3d b0 28 00 3f
       0.10500243 0.39910954 0.11103792 0.50062084
0003a0 51 ba a7 bf d3 e9 b4 3f 5e 1c 45 be d4 5d 78 3e
       -1.3103734 1.4133857 -0.19249102 0.24254543
0003b0 1f f3 93 3e f0 6f 57 3d fd 55 0c bd 1f 93 f8 3d
       0.28896424 0.052596986 -0.034261692 0.12137436
0003c0 06 fa 9d bd 67 00 95 3c f5 ec 89 3e 71 f5 76 be
       -0.07713704 0.018188668 0.26938596 -0.24117066
0003d0 c6 7e 9c 3d f3 e0 b1 3e 80 8f 05 3e 8e 70 db bd
       0.076413676 0.34741935 0.13043022 -0.107148275
0003e0 d9 d9 f2 ba 24 7a ce 3e 4b 1c b7 bf 89 ec 2c be
       -0.0018528058 0.4032756 -1.4305509 -0.16887106
0003f0 4a c4 8b bd 80 51 dd 3d 1b de 91 3e 9d 71 c3 3e
       -0.068245485 0.108065605 0.28489766 0.38172618

hidden.bias f4 [400]
000000 f6 12 48 3f 82 14 6f 3f 1d f3 06 3f f0 75 a8 be
       0.7815393 0.9339067 0.5271471 -0.3290248
000010 ac c9 2d 3f 43 bc 50 be 1c 32 b0 3e 05 b8 ec 3e
       0.6788585 -0.20384316 0.3441323 0.46234146
000020 ce 1d d8 3e 6e 17 03 bf e6 89 00 bf 79 77 e1 3e
       0.4221024 -0.51207626 -0.50210416 0.44036463
000030 4f f3 d1 bd 99 ae e7 3e fd 06 1b 3f 3b f3 af be
       -0.102514856 0.45250395 0.6055754 -0.34365258
000040 25 63 1b 3f 13 e8 3a be 91 83 0b bf 2b 5b f8 be
       0.6069816 -0.18252592 -0.5449763 -0.48507056
000050 e1 e7 b9 bf c5 15 30 3f a2 1a 71 3f 89 87 c0 be
       -1.4523889 0.6878322 0.94181263 -0.37603405
000060 c6 55 a1 3e 2d 69 10 3f 8d 4d cd 3e f5 c6 d4 3e
       0.31510752 0.56410486 0.4009823 0.41558042
000070 3c 11 54 3f 48 d8 3c bf 89 ad 56 3e cd 10 18 bf
       0.828388 -0.7376752 0.20964636 -0.59400636
000080 67 a2 08 3f 22 22 7b bf 58 9d 87 3f 63 82 72 3f
       0.53372806 -0.9809896 1.0594893 0.94730204
000090 cb c0 2a 3f 3f 10 92 be 89 b3 6c bf e2 e1 2e 3f
       0.6670043 -0.2852802 -0.9246145 0.6831342
0000a0 81 d9 72 be 3d 4d 5c 3f 74 43 dc be b4 02 78 3f
       -0.23715784 0.86055356 -0.43020213 0.96879125
0000b0 f5 73 50 3f dc c5 66 3f 88 60 4e 3f 17 e7 20 3f
       0.81426936 0.9014566 0.80616045 0.62852615
0000c0 3e d7 36 bf 3c 29 00 be c4 ef 39 bf e1 83 be 3e
       -0.71422184 -0.1251573 -0.7263148 0.3720999
0000d0 04 13 09 3f 59 d4 9b bf 43 5a 0a 3f 03 b4 03 bf
       0.5354464 -1.2174178 0.5404398 -0.5144655
0000e0 97 5e b0 be ca 6f 65 be ec 43 d2 be 6f 51 c4 be
       -0.34447166 -0.22405925 -0.41067445 -0.3834338
0000f0 a5 20 1e 3f ae 1c 9b 3e 38 d3 15 3c 3d 0b 66 3f
       0.6176856 0.30295318 0.009144597 0.898609
000100 17 01 c6 3e 5b 06 a4 3e 53 af 53 3f ae 9c bb bf
       0.38672706 0.320361 0.826894 -1.465719
000110 6e b2 ff 3e 17 6c cc 3e 0e 05 23 3e ce f2 94 3e
       0.4994082 0.39926216 0.15919897 0.29091495
000120 87 df 54 3f 4f 8d 80 3e aa f7 9a bf 1c 4d f4 be
       0.83153576 0.2510781 -1.2106831 -0.4771508
000130 85 99 de be 53 0e f0 be ec 94 cc 3e d3 25 63 3f
       -0.434765 -0.4688593 0.39957368 0.8872959
000140 c4 eb 7d 3f a5 95 01 3f fc aa 41 3f a8 d0 89 3e
       0.99187875 0.50618964 0.75651526 0.26917005
000150 0d 8a 58 3f 62 00 f1 be 48 ac 60 3e 93 c9 16 bf
       0.8458565 -0.47070605 0.2194072 -0.5890133
000160 2c 12 79 3f cb ff bd 3e 15 f9 06 bf 8f c3 49 3f
       0.97293353 0.37109217 -0.5272382 0.78814024
000170 68 67 43 3f 22 5c 63 be 4f 22 e7 be ed f3 f6 3e
       0.7632966 -0.22203115 -0.45143363 0.48232976
000180 d0 1b bf 3e 75 21 2a 3f 34 9e 37 3f eb 2b 46 3f
       0.37325907 0.664573 0.71725774 0.77410764
000190 9c 57 65 3d cc 68 53 3f 15 f1 a0 be b6 a6 a4 be
       0.055991754 0.8258178 -0.3143393 -0.3215844
0001a0 6c bd 29 3f 4b 1e fb 3e 6e 52 30 be a4 48 17 bf
       0.6630466 0.4904655 -0.17218944 -0.59095216
0001b0 0f 23 20 3f 89 1b b6 be 25 5b 06 bd e2 9f 04 bf
       0.62553495 -0.35567883 -0.032801766 -0.5180646
0001c0 f8 3d dd 3e 1c f4 ec 3e 6d b6 ce 3e 42 82 ca be
       0.4321134 0.4627999 0.40373555 -0.39552504
0001d0 fb af a1 be 50 9f 81 3f 9e a8 52 3f 28 ac 4d be
       -0.31579575 1.0126743 0.8228854 -0.20085204
0001e0 c2 f3 55 3f 52 6f 40 3e 5c d6 c7 be ed 39 20 3e
       0.8357507 0.18792465 -0.3903073 0.15647097
0001f0 c3 4d 0a bf 24 8f f3 be a9 cb 16 bf bf c6 eb 3d
       -0.54024905 -0.47570145 -0.5890451 0.11512517
000200 cf c6 d9 be 8f e5 a4 3e d5 cd 6b 3f 01 2b 01 bf
       -0.4253449 0.3220639 0.9211095 -0.50456244
000210 64 ff 58 3f 8b 10 0d bf 17 ad 39 3f e2 cc ec 3d
       0.84764695 -0.5510337 0.7252974 0.11562516
000220 28 31 89 3e b3 b4 b4 bf e1 3e 0c 3f 8f 8c 44 3f
       0.26795316 -1.4117645 0.54783446 0.76776975
000230 9f 73 b3 be 7e 67 25 be 5b e0 9b be 71 a1 d1 be
       -0.3504915 -0.1615276 -0.30444607 -0.40943483
000240 37 de dd 3e 39 bf 80 3f 79 18 0b bf ad 75 0b bb
       0.433336 1.0058357 -0.5433422 -0.0021279857
000250 b5 11 a7 be 61 da 71 3f 8d d2 8e 3e d7 4c 19 be
       -0.32630697 0.94473845 0.27895012 -0.14970718
000260 ca 87 e1 be 9a 31 0f bd 9f ed 46 3f 8b 3a 60 3f
       -0.4404891 -0.034959413 0.7770633 0.8758933
000270 c5 f6 89 be 09 4d de 3e 0e 51 63 bf 4b c0 05 bf
       -0.26946083 0.43418148 -0.88795555 -0.5224654
000280 5f 09 38 3f 22 e9 04 c0 06 81 ae be f9 b6 f3 bd
       0.718893 -2.0767293 -0.34082812 -0.11900134
000290 1d e5 5f bb 07 54 b0 be 85 c4 7d bf a8 b4 8b 3e
       -0.0034163662 -0.34439108 -0.9912799 0.27286267
0002a0 94 1e 17 bf da 27 9b 3e 21 22 95 3e 72 63 d0 be
       -0.59031034 0.30303842 0.291276 -0.4070087
0002b0 d7 cd 83 3f 80 2d ca be df c6 a9 be e9 0c 95 3c
       1.0297192 -0.3948784 -0.3315954 0.018194633
0002c0 9d 98 62 3f 2b 6e 3b 3f a0 f9 e4 3e 97 b0 45 3f
       0.8851412 0.7321498 0.447217 0.7722258
0002d0 52 f6 a8 be 4c 8b 8f bf f6 02 f9 bd 82 47 28 3f
       -0.33000427 -1.1214385 -0.12158768 0.6573411
0002e0 96 fd 03 3f bb 5c bd be 2d 28 e0 bf 2a 2d 56 3f
       0.51558816 -0.3698481 -1.7512261 0.83662665
0002f0 93 e5 bd be 43 a8 c3 bb 68 68 09 3f db 5d f8 3e
       -0.37089214 -0.005970986 0.53674936 0.48509106
000300 1e 77 08 3f fe 6e 4a be 4d 37 24 bb 0c fc 0a 3f
       0.5330676 -0.19768903 -0.0025057376 0.54290843
000310 70 03 d0 bd 91 4d 48 bc 85 b9 9b be e6 14 ad bd
       -0.10156906 -0.0122255245 -0.30414978 -0.08451252
000320 08 8e 94 3e 90 8f 11 3f 78 69 16 bf d3 1c 2e 3f
       0.2901461 0.56859684 -0.5875468 0.6801273
000330 73 55 0c 3e f7 ba b1 3e 56 1a fc be 87 a0 e7 3e
       0.13704471 0.34712955 -0.49238843 0.4523966
000340 1e 88 af 3e 76 cd 66 3f bf 61 0d bf 54 54 5f be
       0.34283537 0.9015726 -0.55227274 -0.21809512
000350 f2 d7 70 3f c4 ca 0c 3f be 92 23 3f 9c 11 80 be
       0.94079506 0.54996896 0.63895786 -0.25013435
000360 2f 01 d7 be 50 60 17 bf f7 de 4e bf 18 21 b9 be
       -0.4199309 -0.59131336 -0.8080897 -0.3615806
000370 01 80 5e bd 62 33 f6 3e 0f 50 0f bf 0d 38 b8 be
       -0.054321293 0.48086077 -0.55981535 -0.35980263
000380 b5 54 d9 be 12 af ff 3e ba 1e f5 be a8 db 28 bf
       -0.4244744 0.49938256 -0.47875005 -0.6596017
000390 9c 92 98 be 04 ca e2 be ed 1e 41 3f 49 86 e5 be
       -0.29799354 -0.4429475 0.75437814 -0.44829014
0003a0 d7 cd 09 3f be c2 06 bf 57 7b c7 3e bf 12 8d be
       0.5382971 -0.52640903 0.38961288 -0.27553365
0003b0 39 92 2b 3f d2 ce b5 be 94 99 ef be 6b 42 11 bf
       0.67019993 -0.35509354 -0.46796858 -0.5674197
0003c0 ce 22 53 3f 3a 88 23 bf 54 65 73 3b 91 9d d7 39
       0.8247498 -0.6387974 0.0037139254 0.00041125392
0003d0 9d 50 74 3f ba 3b 3a be 49 ca 55 3f 63 d0 97 3e
       0.95435506 -0.18186846 0.8351179 0.29651174
0003e0 79 fe da 3e 2b e4 cd be e5 18 4d 3d e7 ea 8c be
       0.42772272 -0.4021314 0.05007257 -0.27522966
0003f0 89 e7 b9 3e 5b 49 28 be 85 8a e3 b9 97 00 e1 bf
       0.3630946 -0.16434233 -0.0004340002 -1.7578305

out.weight f4 [18, 400]
000000 4c 2e e6 3e 97 0a 6a 3f 01 b6 6b 3e c2 8a 3b bd
       0.44957197 0.9142241 0.23018648 -0.045786627
000010 a4 32 33 3f 2e 10 be be 65 54 c1 3e 5d e3 ef 3e
       0.69999146 -0.3712172 0.377597 0.46853152
000020 44 21 3c 3e 43 8d 57 bf 7c e0 5c be 03 0d 0d 3e
       0.18372065 -0.84199923 -0.21570009 0.13774495
000030 d5 3d 4c be e2 c7 ef 3e 4f 08 16 3e 68 ea 50 3c
       -0.19945462 0.46832186 0.14651607 0.012751199
000040 35 96 bd 3e 14 12 11 bf ab d3 6a bd 9b 29 0e 3c
       0.3702866 -0.5666821 -0.05733077 0.008676912
000050 ef 85 22 be 98 ed f4 3e 6b e4 77 3f f4 5a d7 3c
       -0.15871404 0.4783752 0.96832913 0.026288487
000060 74 66 f9 3e 91 94 03 3f 5b ea 6b 3e a5 0a cb 3e
       0.48710978 0.5139857 0.23038618 0.3965656
000070 10 38 f9 3e 6d 34 b9 3d fe 8d 70 3d 92 11 9d 3d
       0.48675585 0.090432025 0.058729164 0.07669367
000080 9e 49 12 3f 01 73 0a 3d 50 b7 33 3f aa f8 4b 3f
       0.5714358 0.033801083 0.7020159 0.79676306
000090 2c 05 d8 3e 68 dd c7 bd c7 f8 d9 bc c6 65 1d 3f
       0.42191446 -0.09759027 -0.026607884 0.6148342
0000a0 fb a8 ba 3e bf 79 2e 3f db 4c 0d be 07 a6 66 3f
       0.36457047 0.6815452 -0.1379885 0.9009709
0000b0 7b cd 27 3f 29 a7 20 3f b1 db d8 3e 26 06 b6 3e
       0.65547913 0.62755066 0.4235511 0.35551566
0000c0 a8 d6 68 3d ff 77 5c be 69 60 8b 3e db 26 16 bd
       0.056845337 -0.2153015 0.27221993 -0.03665815
0000d0 de 34 03 3f df bf 5b 3c ef 01 c4 3e 19 78 36 3d
       0.51252544 0.013412445 0.38282725 0.044548128
0000e0 50 95 86 bd b3 3f 99 be 9c a8 3a be 87 37 ac 3c
       -0.06571448 -0.2993141 -0.18228382 0.021022571
0000f0 94 ba f9 3e 49 ab 2b 3e b1 1b 64 bd c0 27 0b 3f
       0.4877516 0.16764559 -0.05569047 0.5435753
000100 e9 c9 3b bc 67 6f fd 3c c6 03 04 3f a7 58 8d bd
       -0.011461713 0.03093691 0.5156826 -0.06901675
000110 e9 85 a7 3d 86 77 a0 3e c3 95 63 3e 33 d8 10 3f
       0.08179838 0.3134119 0.22225098 0.56579894
000120 04 01 21 3f e1 8b fa 3d c6 26 ea 3e b7 11 94 be
       0.62892175 0.12233711 0.45732707 -0.28919765
000130 66 c9 1a bd 93 32 2c 3d 1f 9e b5 3d f5 0d 1f 3f
       -0.037789725 0.04204042 0.0886805 0.6213067
000140 4a 4f 06 3f 8d 20 0a 3e 57 0f 16 3f f9 76 d3 3d
       0.52464736 0.1348898 0.58617157 0.103254266
000150 3d 95 ed 3e 70 50 dc 3c 22 83 e3 3d cc d4 76 be
       0.46402922 0.026893824 0.11108996 -0.24104613
000160 af c4 19 3f 61 ff f9 3e c7 d9 65 b9 47 e9 0f 3f
       0.6006574 0.4882765 -0.0002192027 0.5621533
000170 be 80 da 3e 32 74 d6 bd 1d be 54 3c 1f d2 07 3f
       0.42676347 -0.10471381 0.01298478 0.53054994
000180 c4 cc 85 3e fa 6e 00 3f a3 02 31 3f c6 d6 2e 3f
       0.26132786 0.50169337 0.6914465 0.6829647
000190 8f ff 59 3d 70 e4 38 3f 56 06 a3 be 69 bc a9 bc
       0.053222235 0.7222357 -0.3184077 -0.020719724
0001a0 c2 a4 0c 3f 84 e2 54 3e 30 68 7c 3c 48 4a d9 3d
       0.549389 0.20789534 0.0154057 0.10609871
0001b0 32 dd 3f 3e fe cd 09 3e 65 2e 77 bd aa f9 24 bd
       0.18736723 0.13457486 -0.06034698 -0.04027716
0001c0 b4 3b dd 3e ed 3a 75 3e 30 79 dc 3e 75 63 9b 3e
       0.43209612 0.2394826 0.4306121 0.30349317
0001d0 78 27 a7 be 51 7f 7c 3f 67 6d 49 3f 1b ef 86 3d
       -0.326473 0.9863177 0.7868256 0.065885745
0001e0 a3 97 c7 3e 14 a8 c7 bc 20 4b c3 3a 12 5f 0c be
       0.38982877 -0.024372138 0.0014899708 -0.13708141
0001f0 d6 fc ee 3b e5 be 66 3e 63 19 f5 3d c0 5e 10 3e
       0.007293324 0.22533758 0.11967733 0.14098644
000200 69 45 14 bd 5a bc fd 3d 9b 82 30 3f 64 57 b6 bc
       -0.036199007 0.12389441 0.6894929 -0.022258468
000210 5a 66 66 3f c0 41 52 3d 2e b2 87 3e ad 1b 13 bc
       0.89999926 0.051332235 0.26503128 -0.008978766
000220 8a ce d3 3e a1 7a eb bd 69 12 03 3e ff 20 64 3e
       0.41368514 -0.11497999 0.12799992 0.22278212
000230 36 db 1d 3e 5e 8a 7b 3c 3d b0 00 3d 69 dc 84 bd
       0.15415654 0.0153528135 0.031418074 -0.064873524
000240 a8 03 a9 3e 55 69 bb 3e 74 49 1c 3d 91 fc 9f 3b
       0.33010602 0.366038 0.038155988 0.004882403
000250 a0 26 1e bb f4 fd 17 3f fd 9f bc bd 15 29 09 bf
       -0.002413191 0.59371877 -0.09210203 -0.5357831
000260 da 68 1e bd 74 77 fc 3d c4 3c 27 3f 90 9b 31 3f
       -0.038674213 0.123274714 0.65327096 0.69377995
000270 01 d1 52 bd 61 f3 34 3f 90 56 ad 3e b2 75 b2 3d
       -0.051468853 0.70683867 0.33855104 0.08713855
000280 f9 dc d4 3e b4 ec 13 3e 30 48 ce 3d d7 fd f9 3c
       0.4157484 0.14445764 0.100723624 0.030516548
000290 5a 8e 93 bd 79 71 88 be 25 88 cb bc c9 c2 fe 3c
       -0.07204886 -0.26649073 -0.024845192 0.03109874
0002a0 fc 81 97 3e 05 31 73 3e 67 12 14 3e 46 ef 17 be
       0.29591358 0.23749168 0.14460145 -0.1483737
0002b0 24 41 33 3f e8 e3 0d bd 69 eb 8a be c9 3e 65 3d
       0.7002127 -0.034641176 -0.2713273 0.05596808
0002c0 ff 9d 7f 3f bb b6 10 3f 13 b4 d0 3e 7c eb 09 3f
       0.9985046 0.56528825 0.40762386 0.53874946
0002d0 bd f2 d6 3c b7 a5 f9 bd fb 5e 02 bf 04 3c de 3e
       0.026238794 -0.12189811 -0.5092618 0.43405163
0002e0 82 8c 94 3e 69 22 78 be f2 a4 1e 3d c7 3c 3c 3f
       0.2901345 -0.24231876 0.038731523 0.7353024
0002f0 69 39 2f 3c f5 24 15 3f 22 a1 9c 3e 83 d6 aa 3e
       0.01069484 0.58259517 0.30591685 0.33366784
000300 f4 40 7b 3e 6a 78 d4 be 4f f2 6b 3e 22 59 0c 3f
       0.24536496 -0.4149812 0.23041652 0.54823506
000310 f0 86 a4 bd 26 3c a4 3e d6 d5 18 bf ca 20 22 3d
       -0.0803355 0.3207714 -0.5970129 0.03958205
000320 e2 03 ab bd cc aa e5 3e 2e 50 37 3d 48 da f4 3e
       -0.0835035 0.4485687 0.0447542 0.47822785
000330 6c 64 3c 3e 26 28 38 3e ec 78 ee bc 40 bb 3b 3d
       0.18397683 0.17984065 -0.029110394 0.045832872
000340 4e 18 76 3e 3e c5 44 3f ec 6a 19 bd 73 e9 70 bd
       0.24032709 0.7686347 -0.037455484 -0.058816385
000350 9f d2 3e 3f 24 79 08 3f bd c4 a5 3e 50 5f 65 bc
       0.7454013 0.53309846 0.32376662 -0.013999775
000360 9c 6e 47 bb 92 ab 08 3f ef 14 01 3d 36 00 1e 3d
       -0.0030430919 0.53386796 0.031514104 0.03857442
000370 41 07 aa 3d c0 03 97 3e 66 37 ee 3c 91 d4 53 bc
       0.08302165 0.2949505 0.02907915 -0.012929098
000380 a6 73 de bd 00 58 3c 3f de 91 93 be c6 59 86 be
       -0.10861902 0.7357178 -0.28822225 -0.26240367
000390 2d fc 4b bd ff 60 06 3d 22 ea 05 3f af d8 37 ba
       -0.04980104 0.032807346 0.52310383 -0.00070131844
0003a0 3e ca 3a 3e f7 fa f1 bb ae 64 bf 3e 6f 5c 66 bd
       0.18241212 -0.0073846537 0.373815 -0.056240495
0003b0 87 db dc 3e ef 68 bd bd 2e b8 da bd cf 7c b8 3c
       0.43136236 -0.0924853 -0.10679661 0.02252045
0003c0 5e 7b 47 3f 1c 84 30 3d 33 12 66 3e 47 e9 dd bd
       0.7792262 0.04309474 0.2246788 -0.1083551
0003d0 03 af 2a 3f f7 9f 20 be 6f f1 cf 3e 60 ff df bc
       0.66673297 -0.15686022 0.40613887 -0.027343452
0003e0 d1 56 f2 3d a8 57 39 be 18 c0 c3 be 2a 74 10 be
       0.11832965 -0.18099844 -0.38232493 -0.14106813
0003f0 7d 2f a8 3d 39 8a 0d 3d 28 c5 68 3e 0e 43 41 3e
       0.08212183 0.034555648 0.22731459 0.18873236

out.bias f4 [18]
000000 26 c7 98 3f 47 20 a1 3f 31 c0 cb 3f ac 6f 05 40
       1.1935775 1.2587975 1.5918027 2.084941
000010 11 c7 9b 3f 3e 99 b7 3f 31 27 96 3f fb 1f ad 3f
       1.2170125 1.4343641 1.173071 1.3525385
000020 21 fd 55 3f 5c b0 94 3f e7 50 bb 3f 3d 64 9c 3f
       0.8358937 1.1616321 1.4634064 1.221809
000030 15 4e c0 3f 15 1f a7 3f bd b1 d3 3f 44 ad f2 3f
       1.5023829 1.305636 1.6538616 1.8959126
000040 39 f8 ab 3f f5 c9 95 3f
       1.3435127 1.1702257
