snapshots/A_3200_epoch_495.pth (torch, 194136 bytes, 1 tensors)

hidden.weight f4 [3200, 6]
000000 66 34 57 be 6c 36 da bd 89 42 4f 3e 01 39 cf bd
       -0.21016082 -0.106549114 0.20240225 -0.101182945
000010 1a 9f 5e be 3a 1e ef 3d da a6 3d 3e c0 81 7b 3d
       -0.2174038 0.11675687 0.1852068 0.061403036
000020 07 50 a2 bb 93 c9 32 3e 82 8c 8e 3e 67 78 47 be
       -0.0049533877 0.17459707 0.27841574 -0.19479524
000030 60 6e 58 bd cd e8 f0 3d dd 06 2f bd 11 88 ca be
       -0.052839637 0.11763153 -0.042731155 -0.39556935
000040 75 13 13 be 6b 5f 3f 3e be 96 97 bd da 0c f7 3d
       -0.14362891 0.18688743 -0.07401799 0.12062998
000050 d1 4b cd 3d f2 26 d6 be 0e 64 5e bb 4d bb fe bd
       0.100242265 -0.41826588 -0.003393415 -0.124380685
000060 9b 84 00 be 25 b9 21 bd e5 85 94 3e 7f 27 4b be
       -0.12550585 -0.03948321 0.29008403 -0.19839285
000070 e7 a5 ff 3d de a2 4f 3e f9 b1 1a bd 9b 1d 05 be
       0.12482815 0.20276973 -0.037767384 -0.12999575
000080 c8 59 2a bd 75 cc 0e be c1 71 e4 bd ac d0 3d 3e
       -0.04158953 -0.13945182 -0.11154509 0.18536633
000090 ca 9d 1c 3e 1b 05 16 3d 02 ca 37 bc 43 99 f9 be
       0.15294567 0.036625963 -0.011217596 -0.48749742
0000a0 8a d4 4f bd d3 72 09 be 62 cc 41 be e0 7f ca 3c
       -0.050739802 -0.13422708 -0.18925622 0.024719179
0000b0 f7 b1 b0 3d 7a 28 96 3d 37 6a 4d 3e 3c 4c 90 bd
       0.08627694 0.07331939 0.20060049 -0.070457906
0000c0 6a 4c d6 bd c8 e9 34 be 30 b3 ca bd bf 20 71 3d
       -0.104637936 -0.17667305 -0.098974586 0.05886912
0000d0 be ed be 3e 49 87 cc be 0f 67 5e be eb 29 84 bd
       0.37290758 -0.39946964 -0.21719001 -0.06453308
0000e0 d0 54 c8 3d 3d 5f 37 bd fe 36 88 3c 38 e2 7f 3e
       0.09781802 -0.04476856 0.016627785 0.2498864
0000f0 b2 d9 65 be 97 b1 a5 3c 76 1a 31 be 74 a1 e0 3d
       -0.22446325 0.020226283 -0.1729525 0.10968295
000100 4f 36 3c be 79 af 04 be 59 12 f7 bd a9 c1 4b be
       -0.18380092 -0.12957563 -0.120640464 -0.19898094
000110 b0 5b 3e 3e fd b0 3e 3d 0d e3 69 3e 3b 9c 4c 3e
       0.18589664 0.046555508 0.22840519 0.19981472
000120 5a 32 34 3d 43 71 12 bd f3 f4 1d 3e 71 5f 15 3e
       0.04399333 -0.035752546 0.15425472 0.1458719
000130 c9 c7 fe 3c 17 c6 b4 bc 25 97 ab 3e 2a e3 fd 3c
       0.031101124 -0.022067113 0.33513752 0.03099211
000140 37 6b 63 be 1a f4 7a 3e b8 0a 3d be 04 2d 8e 3c
       -0.22208868 0.2450718 -0.1846112 0.01735545
000150 6c 3b bc 3d 5f 16 46 3c d0 99 78 3d 7e fd 33 3e
       0.09191021 0.012090295 0.060693562 0.17577168
000160 98 63 15 be f0 b4 f5 bd 07 0c a2 bc 07 4c 29 3e
       -0.14588773 -0.11997402 -0.019781126 0.16532908
000170 68 31 7a 3e f2 b3 d3 be 09 cf 50 be 96 0b a1 3e
       0.2443291 -0.41348225 -0.20391478 0.31454152
000180 7e 8f 9c be a8 e2 75 be 00 b7 04 3d bb cb b4 bc
       -0.30578226 -0.24012244 0.032401085 -0.022069803
000190 a7 bd 80 3e 7d 75 e1 3d 01 60 31 3e b8 0f d6 3c
       0.25144693 0.11008737 0.17321779 0.026130542
0001a0 8a ae 13 3e a4 04 24 be cf 31 a2 3e 40 91 bb be
       0.1442205 -0.16017395 0.31678626 -0.36634254
0001b0 58 17 bb 3e e7 4f d8 bd 02 5d 9b be 6e 13 e2 3d
       0.36541247 -0.10562115 -0.30344397 0.11038862
0001c0 84 f3 7b bb 7e 91 6e 3d 28 05 9d 3d 87 f5 95 bd
       -0.0038444707 0.05824422 0.07666999 -0.07322221
0001d0 e0 14 1c 3e f5 93 28 3e 6d 34 11 3d 7b 43 13 bd
       0.15242338 0.16462691 0.035450388 -0.035953026
0001e0 4b 2d 60 3e b9 4c 50 3d 1d 39 5f 3e a1 d3 9c be
       0.21892278 0.05085442 0.2179913 -0.3063021
0001f0 26 59 74 3e 6b c1 86 3e 65 bc df 3d da 7a 8c be
       0.23862132 0.2631944 0.10924605 -0.27437478
000200 e9 65 bc be 5e ac 8e be 25 44 84 be d8 c8 63 3d
       -0.367965 -0.2786588 -0.2583324 0.05561146
000210 ac 26 af 3d d6 31 ce 3d d3 40 9f 3d 53 d6 77 bd
       0.08552298 0.10068099 0.07776036 -0.06050713
000220 39 dc 9f be 95 6b d7 bd 91 4b 71 3c 2c 34 9c bd
       -0.31222704 -0.105185665 0.014727489 -0.076271385
000230 29 82 d3 3d a7 cd a6 be f0 b6 65 be da 1a b0 3d
       0.103275605 -0.32578775 -0.22433066 0.085988715
000240 d0 7b 7f 3e 55 16 f7 3d b4 9d 03 be 60 63 9b be
       0.24949574 0.12064806 -0.12853128 -0.30349255
000250 9b 87 74 3d 53 d9 c9 bd bc d2 a5 be b3 de 88 bd
       0.059699636 -0.098559044 -0.3238734 -0.066831015
000260 04 c1 a3 3e 3f 3a 2f 3e ce 09 65 be 94 a9 bd 3e
       0.31983197 0.17112063 -0.22367021 0.3704344
000270 07 4f 56 3e bd ed 7c bc 0f 75 aa 3e 03 50 3e 3e
       0.20928584 -0.015437541 0.33292434 0.1858521
000280 60 c4 4f 3d f0 b9 c8 3d 11 1c 85 3e f7 61 af 3d
       0.050724387 0.0980109 0.25997975 0.08563607
000290 4e c0 94 be 65 16 bc 3d 6f 4b 79 3e 3e 74 8b 3e
       -0.29052967 0.09183959 0.24345182 0.27237123
0002a0 af d2 9a 3d 58 0b 26 be 91 06 72 3e 80 63 fe bb
       0.07559716 -0.16215265 0.23635317 -0.007763326
0002b0 5a 5b a6 be 44 1e 26 be 14 08 b3 be cb 7c 1a 3c
       -0.3249157 -0.16222483 -0.349671 0.009429167
0002c0 55 0a ce bc cb 1d 85 3e 93 2d c8 be dd 34 65 3e
       -0.025151411 0.25999293 -0.3909727 0.22383447
0002d0 14 37 1a 3d 63 3a 8e be 19 52 29 be fa 2e 8f 3d
       0.037650183 -0.2777892 -0.16535224 0.06991382
0002e0 b1 83 9e be f5 f1 41 3e 66 14 15 3e e2 f0 0a 3e
       -0.30959848 0.18939956 0.14558563 0.13568452
0002f0 03 39 29 3e b8 76 73 3e 7e 85 a2 be b5 95 00 3e
       0.16525654 0.23775756 -0.3174247 0.12557109
000300 0d de c0 3d 75 2c c6 3d 9d 08 54 be 34 d2 26 3d
       0.09417353 0.09676448 -0.2070641 0.04072781
000310 29 e1 b8 3e dc 65 50 be 80 da 54 3e ec 88 bf 3d
       0.36109284 -0.20351356 0.20786476 0.09352288
000320 4e 74 9e be d5 c4 1f 3e 3d 5e 9a 3c 74 9e 62 be
       -0.30948108 0.15602429 0.018843764 -0.22130758
000330 ec 3c c7 3d 08 e4 81 3e d6 ea 66 3e 9b 89 44 bd
       0.09728417 0.25369287 0.2255052 -0.047982793
000340 9f 15 5c be 16 1b 8a 3d af c9 07 3d 30 2e 86 3e
       -0.21492623 0.067434475 0.033151325 0.26207113
000350 f7 d3 2d be 41 ae 38 be 98 db 97 be 14 fb 88 3d
       -0.1697539 -0.18035223 -0.29659724 0.06688514
000360 56 d3 ae 3d 3f 7c 9a bd 1d ed 4c 3d b7 07 36 3e
       0.08536403 -0.07543229 0.050030816 0.1777638
000370 92 bf 8c be fe c1 ad 3e 92 6b 58 be bc 85 74 3d
       -0.27489907 0.33937067 -0.21134785 0.05969785
000380 ab 3b b9 3e 2d 68 8a 3e 69 91 84 3d 0a 52 88 be
       0.36178336 0.27032605 0.06473047 -0.2662509
000390 0f 35 90 3e 82 be 92 be 68 41 7e be 11 3a d8 bc
       0.2816548 -0.2866097 -0.24829638 -0.026394876
0003a0 e9 04 8d 3c 53 5b 4e be 99 bd e3 3d 2e d2 79 be
       0.017214255 -0.20152025 0.11120147 -0.24396583
0003b0 3e 79 28 be 38 47 28 3e a2 58 81 be 48 78 46 bd
       -0.164525 0.16433418 -0.25262934 -0.048454553
0003c0 d5 c2 78 be 87 2c bb bc bd b5 a3 bd b0 a9 24 3e
       -0.24293073 -0.02284838 -0.07993648 0.16080356
0003d0 17 57 88 be 2a 5e 0f 3e e0 0a 5e 3e 63 97 19 bd
       -0.26628944 0.14000764 0.21683836 -0.03749789
0003e0 27 74 40 bd d0 00 c1 be a4 08 f1 bd 57 10 2a be
       -0.04698577 -0.37695932 -0.11769226 -0.16607796
0003f0 c0 1f ac be ee 83 53 bd aa a0 d9 3e 1b 60 1c be
       -0.33617973 -0.05163949 0.4250539 -0.15271036
