snapshots/dba_3200_epoch_400.pth (torch, 975208 bytes, 1 tensors)

hidden.weight f4 [3200, 3]
0	0xbe8994ec	-0.2687143
1	0x3ef3db8e	0.47628444
2	0x3ec2c15f	0.38038155
3	0xbe41f212	-0.18939999
4	0x3e834342	0.2563725
5	0x3f0e9774	0.5569985
6	0xbd43586a	-0.04769174
7	0xbe7c7df6	-0.24657425
8	0x3eaffe05	0.3437349
9	0xbdb751ec	-0.08951172
10	0xbcea0a9b	-0.02856951
11	0x3e63e754	0.22256213
12	0xbe74db82	-0.2391186
13	0xbf174e42	-0.59103787
14	0x3f25fe5f	0.64841264
15	0x3e84690f	0.25861403
16	0x3f008512	0.5020305
17	0x3d97f7d4	0.07420316
18	0x3ec0ff7a	0.37694913
19	0xbe4cd1e6	-0.20001945
20	0x3e9f6e72	0.3113895
21	0xbdb03cc8	-0.08605343
22	0xbea941e3	-0.3305808
23	0x3e8fc84f	0.2808251
24	0xbeb3ef32	-0.3514343
25	0x3e3ecdb8	0.18633163
26	0xbe83b917	-0.2572715
27	0xbe8b5fd8	-0.2722156
28	0x3d763430	0.060108364
29	0x3dadc43f	0.084846966
30	0xbd482cf4	-0.048870996
31	0xbb491e6f	-0.0030688306
32	0xbe4fb305	-0.20283134
33	0xbe02fd7a	-0.12792006
34	0x3e068717	0.1313747
35	0x3e8cd400	0.27505493
36	0x3e2be71a	0.16787377
37	0x3e3df64f	0.1855099
38	0xbd1c8bc0	-0.038219213
39	0xbd683d0a	-0.056698836
40	0x3eacf58c	0.33781087
41	0x3c98458f	0.018587856
42	0xbeb0ba37	-0.3451707
43	0x3f06f0f3	0.5271141
44	0x3e8605ce	0.26176304
45	0x3e297de8	0.16551936
46	0xbf0c90a1	-0.54908186
47	0x3e174b76	0.1477488
48	0x3e69191b	0.22763483
49	0xbea4ba57	-0.32173416
50	0xbe064d1d	-0.13115354
51	0xbe081f01	-0.13293077
52	0x3ed077f1	0.40716508
53	0xbdf63419	-0.120216556
54	0xbee47f19	-0.44628218
55	0xbe8c28ec	-0.2737497
56	0xbe4bcca0	-0.19902277
57	0xbc9df2e4	-0.019280858
58	0x3ed68b83	0.41903314
59	0xbe8ed4ed	-0.27896824
60	0xbeaabe8d	-0.33348504
61	0xbd9874c6	-0.07444148
62	0xbebbfa8a	-0.36714584
63	0x3e3d55fc	0.18489832
64	0xbed7a29e	-0.42116255
65	0xbc7ebdf1	-0.015548215
66	0x3ed78aee	0.42098182
67	0x3eb0809f	0.3447313
68	0xbe87177d	-0.26385108
69	0x3e6c7152	0.23090103
70	0x3ede7c96	0.43454427
71	0xbec61a90	-0.3869214
72	0xbe8c8cae	-0.2745108
73	0x3f19afe3	0.60034007
74	0xbeb8943e	-0.360506
75	0x3e6da856	0.23208746
76	0x3edeb8e9	0.4350045
77	0xbec0e9f4	-0.37678492
78	0xbd921552	-0.07132973
79	0xbea1601c	-0.31518638
80	0xbe129651	-0.14315154
81	0xbe91aaef	-0.28450724
82	0x3e15258b	0.14565103
83	0x3dab76ba	0.08372255
84	0x3e0db6e3	0.13839297
85	0xbca0de15	-0.019637147
86	0xbe7e64df	-0.24843167
87	0x3f03e864	0.51526475
88	0xbe62dd0f	-0.2215464
89	0x3d0cc984	0.034371868
90	0x3ed59c55	0.41720834
91	0xbe6a76ac	-0.22896832
92	0xbf1f9574	-0.6233742
93	0x3e6ab6d0	0.229213
94	0x3e924e7e	0.2857551
95	0x3edb3717	0.42815468
96	0xbf236d22	-0.638384
97	0xbee52af1	-0.44759324
98	0xbede880d	-0.43463174
99	0x3f20e202	0.6284486
100	0x3f103bb4	0.563411
101	0xbdb183c3	-0.0866771
102	0xbf1afbb4	-0.6054032
103	0xbe76df75	-0.2410868
104	0xbe10011a	-0.1406292
105	0xbdcef74d	-0.10105763
106	0xbe8c7bb2	-0.27438122
107	0x3e1d846e	0.15382549
108	0xbf12faf4	-0.57414174
109	0x3ed838d7	0.42230865
110	0xbb510dd4	-0.0031899111
111	0x3f2c1607	0.6722111
112	0x3e967790	0.29388094
113	0xbf01aafb	-0.5065152
114	0xbdc5de5e	-0.09661554
115	0x3d55bf02	0.052184112
116	0x3d754952	0.059884377
117	0xbeaff570	-0.3436694
118	0x3d5c79f8	0.053827256
119	0x3ef8eabd	0.4861659
120	0xbec79c1b	-0.38986287
121	0xbe548c8c	-0.2075674
122	0xbeedd70b	-0.46453127
123	0xbed98220	-0.4248209
124	0x3dd61f24	0.10455158
125	0xbe86ec29	-0.2635205
126	0xbd426ba4	-0.047465935
127	0xbea0ba54	-0.31392157
128	0x3f03c596	0.5147337
129	0x3dfcdbb1	0.1234659
130	0xbccd1984	-0.02503658
131	0xbe8d54f2	-0.2760387
132	0xbd0947f7	-0.033515897
133	0xbeeb03c3	-0.45901307
134	0xbd4e2c3e	-0.05033516
135	0xbdf27b21	-0.11839891
136	0x3edf2d77	0.43589374
137	0x3e89fa8e	0.2694897
138	0xbf1dc066	-0.616217
139	0x3e28022f	0.16407083
140	0xbc983898	-0.018581674
141	0xbe85f1aa	-0.26160938
142	0xbd8554c2	-0.06510307
143	0x3f0fc732	0.5616332
144	0x3d1955dd	0.0374354
145	0xbe4e7d52	-0.20164993
146	0xbebe0861	-0.37115768
147	0xbe080172	-0.13281801
148	0xbe4a5be6	-0.19761619
149	0x3f1335fe	0.5750426
150	0xbe73b4cc	-0.23799437
151	0x3eabe9e7	0.3357689
152	0xbf07a3d1	-0.5298434
153	0xbf25b374	-0.6472695
154	0xbee6b7b6	-0.45062035
155	0xbdc464da	-0.095895484
156	0x3e29c2ee	0.16578266
157	0x3c925a13	0.017865216
158	0xbdcfb838	-0.10142559
159	0x3dc02851	0.0938269
160	0x3d2ba118	0.041901678
161	0xbe67ad09	-0.22624601
162	0x3ea2a418	0.3176582
163	0x3eba0f63	0.36339864
164	0xbdb87579	-0.09006781
165	0xbe1a58e3	-0.1507297
166	0x3e71e408	0.23622143
167	0x3e8bb96e	0.2728991
168	0x3ecc8b48	0.39950013
169	0xbd0f932e	-0.03505247
170	0x3e4283e8	0.1899563
171	0xbecfa661	-0.40556625
172	0xbea902e6	-0.33010024
173	0x3f48bcb3	0.7841293
174	0x3ee07eff	0.4384689
175	0xbd4f0176	-0.050538503
176	0xbeaa9157	-0.3331401
177	0x3cd30dcc	0.025763415
178	0xbd0907d2	-0.033454724
179	0xbe817e93	-0.2529188
180	0x3e488246	0.19580945
181	0x3e5b1650	0.2139523
182	0x3d36b0c5	0.044602174
183	0x3ea9ee19	0.33189467
184	0xbe1ff26a	-0.15619817
185	0xbe42ecaf	-0.190356
186	0xbe5fd1f6	-0.21857437
187	0x3e0e2d84	0.1388455
188	0xbe6546af	-0.22390245
189	0xbb7fd9fb	-0.0039039839
190	0x3da16b45	0.07881788
191	0x3d106eda	0.035261966
192	0x3ea52cc8	0.32260728
193	0x3eb27703	0.34856424
194	0xbe881528	-0.2657864
195	0x3ea45600	0.32096863
196	0xbe48b4f2	-0.19600275
197	0xbf09148b	-0.5354697
198	0xbf22432b	-0.6338374
199	0xbeb89dd2	-0.36057907
200	0xbf0420d9	-0.5161262
201	0xbddb7411	-0.10715497
202	0xbed5e7ca	-0.41778404
203	0x3d44573e	0.047934763
204	0x3dc488f7	0.095964365
205	0x3ece247e	0.40262216
206	0x3e704b07	0.2346612
207	0xbe1f1f57	-0.15539299
208	0xbe7d2cc4	-0.24724108
209	0x3f0baa34	0.54556584
210	0x3ec8d8a3	0.3922778
211	0xbe918617	-0.28422615
212	0x3f0b599b	0.544336
213	0xbe7a2a95	-0.24430306
214	0xbe275aea	-0.16343275
215	0x3e135683	0.1438847
216	0x3e88d9f9	0.267288
217	0x3ed87e71	0.42283967
218	0x3d47e1c3	0.048799288
219	0xbf345577	-0.7044291
220	0xbe337b98	-0.17527616
221	0xbe94ec6b	-0.29086623
222	0xbcf45423	-0.029825276
223	0x3ea0b43e	0.31387514
224	0xbe435a51	-0.19077422
225	0x3e253d85	0.16136749
226	0xbeba1bca	-0.36349326
227	0xbe5a9394	-0.21345359
228	0xbe2becb3	-0.16789512
229	0xbea181b9	-0.31544283
230	0xbf131f4f	-0.5746965
231	0xbda37a7e	-0.07982348
232	0xbed867fe	-0.4226684
233	0x3ef7fafd	0.48433676
234	0xbf08c507	-0.5342564
235	0x3e190db7	0.14946638
236	0xbedc4893	-0.4302412
237	0x3ed0e560	0.408
238	0xbed96fe7	-0.42468187
239	0xbec116ab	-0.37712607
240	0x3e462908	0.1935159
241	0x3b7f21ea	0.0038930126
242	0x3e0ea45c	0.13929886
243	0xbb933cda	-0.004493338
244	0x3ce89fa2	0.028396431
245	0xbf04ba84	-0.518471
246	0x3e7b5992	0.24545887
247	0x3f1121b6	0.56692064
248	0x3ce5321c	0.027977996
249	0x3e4886d6	0.19582686
250	0xbe96a00f	-0.2941899
251	0xbf0abb87	-0.54192394
252	0xbcc3ef58	-0.023917839
253	0xbd9e544a	-0.077309206
254	0x3e90515b	0.2818707
255	0x3e91d29e	0.28481
